…
2020-12-03 06:10:48.247399: I tensorflow/core/common_runtime/gpu/gpu_device.cc:1247] Created TensorFlow device (/job:localhost/replica:0/task:0/device:GPU:0 with 6597 MB memory) -> physical GPU (device: 0, name: GeForce RTX 2070, pci bus id: 0000:01:00.0, compute capability: 7.5)
Model: "model"
_________________________________________________________________
Layer (type)                 Output Shape              Param #   
=================================================================
input_1 (InputLayer)         [(None, 128, 461, 6)]     0         
_________________________________________________________________
conv2d (Conv2D)              (None, 128, 461, 32)      1760      
_________________________________________________________________
batch_normalization (BatchNo (None, 128, 461, 32)      128       
_________________________________________________________________
activation (Activation)      (None, 128, 461, 32)      0         
_________________________________________________________________
max_pooling2d (MaxPooling2D) (None, 64, 231, 32)       0         
_________________________________________________________________
conv2d_1 (Conv2D)            (None, 64, 231, 48)       13872     
_________________________________________________________________
batch_normalization_1 (Batch (None, 64, 231, 48)       192       
_________________________________________________________________
activation_1 (Activation)    (None, 64, 231, 48)       0         
_________________________________________________________________
max_pooling2d_1 (MaxPooling2 (None, 32, 116, 48)       0         
_________________________________________________________________
conv2d_2 (Conv2D)            (None, 32, 116, 56)       24248     
_________________________________________________________________
batch_normalization_2 (Batch (None, 32, 116, 56)       224       
_________________________________________________________________
activation_2 (Activation)    (None, 32, 116, 56)       0         
_________________________________________________________________
max_pooling2d_2 (MaxPooling2 (None, 16, 58, 56)        0         
_________________________________________________________________
conv2d_3 (Conv2D)            (None, 16, 58, 3)         1515      
_________________________________________________________________
batch_normalization_3 (Batch (None, 16, 58, 3)         6         
_________________________________________________________________
global_max_pooling2d (Global (None, 3)                 0         
_________________________________________________________________
activation_3 (Activation)    (None, 3)                 0         
=================================================================
Total params: 41,945
Trainable params: 41,667
Non-trainable params: 278
_________________________________________________________________
Epoch 1/5
2020-12-03 06:10:55.238542: I tensorflow/stream_executor/platform/default/dso_loader.cc:44] Successfully opened dynamic library libcudnn.so.7
2020-12-03 06:10:57.530344: I tensorflow/stream_executor/platform/default/dso_loader.cc:44] Successfully opened dynamic library libcublas.so.10
…
